…
_________________________________________________________________
conv2d_7 (Conv2D)            (None, 4L, 4L, 256)       295168    
_________________________________________________________________
conv2d_8 (Conv2D)            (None, 4L, 4L, 256)       590080    
_________________________________________________________________
max_pooling2d_4 (MaxPooling2 (None, 2L, 2L, 256)       0         
_________________________________________________________________
dropout_4 (Dropout)          (None, 2L, 2L, 256)       0         
_________________________________________________________________
flatten_1 (Flatten)          (None, 1024)              0         
_________________________________________________________________
dropout_5 (Dropout)          (None, 1024)              0         
_________________________________________________________________
dense_1 (Dense)              (None, 1024)              1049600   
_________________________________________________________________
dropout_6 (Dropout)          (None, 1024)              0         
_________________________________________________________________
dense_2 (Dense)              (None, 512)               524800    
_________________________________________________________________
dropout_7 (Dropout)          (None, 512)               0         
_________________________________________________________________
dense_3 (Dense)              (None, 256)               131328    
_________________________________________________________________
dropout_8 (Dropout)          (None, 256)               0         
_________________________________________________________________
dense_4 (Dense)              (None, 10L)               2570      
=================================================================
Total params: 2,880,554
Trainable params: 2,880,554
Non-trainable params: 0
_________________________________________________________________
None
Train on 50000 samples, validate on 10000 samples
…
